tests/best_model.pt (torch, 38815 bytes, 6 tensors)

model.0.weight f4 [128, 4]
0	0xbec239c8	-0.3793471
1	0x3d9609d0	0.0732609
2	0x3ce9a3e0	0.028520525
3	0xbde47768	-0.111555874
4	0x3eb9f535	0.3631989
5	0xbe37deff	-0.1795616
6	0xbead7ce6	-0.33884352
7	0x3e0e70cb	0.13910215
8	0xbeea63c6	-0.45779246
9	0xbe2aed7c	-0.16692156
10	0x3e8d2670	0.27568388
11	0xbe3b687c	-0.18301576
12	0x3e5d11db	0.21588843
13	0xbca58035	-0.020202735
14	0x3ee6c879	0.45074823
15	0xbe3b1866	-0.18271026
16	0x3e920f2d	0.28527203
17	0xbd9a681f	-0.07539391
18	0xbe654406	-0.2238923
19	0xbc8e973d	-0.0174061
20	0xbe1f7e82	-0.15575603
21	0x3de0397a	0.10948463
22	0x3ed5ef76	0.41784257
23	0xbecd1e60	-0.40062237
24	0x3bfb76a1	0.007674054
25	0xbd9d7df1	-0.07690037
26	0x3e3339b0	0.17502475
27	0x3cce6783	0.025195843
28	0xbe3d4c24	-0.18486077
29	0x3be85657	0.0070903706
30	0x3ed25049	0.41076878
31	0x3ec89c26	0.39181632
32	0x3eac2b7e	0.33626932
33	0xbf031e12	-0.5121776
34	0x3f115d6c	0.56783175
35	0xbe936a03	-0.28791818
36	0x3e875ba7	0.26437113
37	0x3ed585cd	0.41703644
38	0xbe028460	-0.1274581
39	0x3ebcb47c	0.3685645
40	0x3dc7d587	0.09757524
41	0x3ebead85	0.3724176
42	0xbec23b95	-0.37936082
43	0x3e7b84d4	0.24562389
44	0x3ee9b12c	0.45642984
45	0x3ec465bd	0.3835887
46	0xbeae4a18	-0.34040904
47	0xbec5b01c	-0.38610923
48	0xbe97ff02	-0.29686743
49	0xbec61e5e	-0.38695043
50	0x3dd4f698	0.103985965
51	0xbe45db8c	-0.19322032
52	0x3e732f4c	0.23748511
53	0x3ec18337	0.3779542
54	0xbe57a3cc	-0.21058577
55	0x3e0beeae	0.13665268
56	0xbea6a370	-0.32546568
57	0x3e212c10	0.15739465
58	0xbefa5134	-0.48890078
59	0x3e1c480c	0.15261859
60	0x3d924e78	0.07143873
61	0xbe8762ce	-0.2644257
62	0xbc832200	-0.016007423
63	0xbe9f2118	-0.31079936
64	0xbe67e6f0	-0.2264669
65	0xbe577068	-0.21038973
66	0xbd631380	-0.05543852
67	0x3eec1b3a	0.46114522
68	0xbec4b336	-0.38417977
69	0x3e3cf078	0.18451107
70	0x3e891680	0.2677498
71	0x3e3c8338	0.18409431
72	0xbdddb169	-0.10824854
73	0x3e2a189b	0.16610949
74	0x3f0dcd7c	0.5539167
75	0xbd446dc6	-0.04795625
76	0x3ebd4c35	0.36972204
77	0x3b4d62f5	0.00313395
78	0x3e47e583	0.19521146
79	0xbe5195a7	-0.20467244
80	0x3ec8b76b	0.39202437
81	0xbe39dd0b	-0.18150727
82	0x3e98eace	0.29866642
83	0x3e85f231	0.2616134
84	0xbed5abb7	-0.4173257
85	0xbd2e5ea8	-0.04257074
86	0x3f04b916	0.5184492
87	0x3ea497c4	0.32147038
88	0x3e65b41b	0.22431986
89	0x3e9d36b9	0.30705813
90	0xbec73915	-0.38910738
91	0x3e32efdb	0.1747431
92	0xbdeb90cd	-0.11502228
93	0x3e398daf	0.18120454
94	0x3e4424e9	0.19154705
95	0x3f0a1588	0.53939104
96	0xbede0b40	-0.43367958
97	0x3e8d9a28	0.27656674
98	0xbebe2850	-0.3714013
99	0x3ef35ac0	0.47530174
100	0xbeb86072	-0.36011082
101	0x3e9cc35c	0.30617797
102	0xbdfffbb0	-0.124991775
103	0xbddbc190	-0.107302785
104	0xbe7f398c	-0.24924296
105	0xbe583104	-0.21112448
106	0xbebb26c8	-0.36553025
107	0xbe06a4f8	-0.13148868
108	0xbe46adf8	-0.19402301
109	0xbeb91a3a	-0.36152822
110	0x3e1854ac	0.1487605
111	0xbe7cf63c	-0.24703306
112	0x3ef8b6d5	0.4857699
113	0xbeccf729	-0.40032318
114	0xbeda2479	-0.4260595
115	0x3e4966e2	0.19668153
116	0xbcb681e0	-0.022278726
117	0xbcff86c0	-0.031192183
118	0xbe9fd9c4	-0.3122083
119	0xbe13cf40	-0.14434528
120	0x3e3d0806	0.18460092
121	0xbe658943	-0.22415642
122	0x3e06b382	0.13154414
123	0x3ea3126f	0.3185
124	0x3c8b8ff0	0.017036408
125	0xbefa11bf	-0.48841664
126	0x3e086f03	0.13323598
127	0x3f0edc87	0.5580525
128	0x3efb6a14	0.4910437
129	0xbe3b5b36	-0.18296513
130	0xbe1ed838	-0.15512168
131	0xbeca0e99	-0.39464262
132	0xbefa9648	-0.4894278
133	0x3e48f838	0.19625938
134	0x3e0f2938	0.13980567
135	0xbe9279d0	-0.2860856
136	0x3ee62a39	0.44954088
137	0x3dc8400c	0.09777841
138	0x3e9a11cd	0.30091706
139	0x3e5f2a02	0.21793368
140	0x3e4de2ff	0.20106123
141	0x3d22dcd7	0.03976139
142	0x3e80020f	0.2500157
143	0xbee1fbd0	-0.4413743
144	0xbd3df588	-0.046376735
145	0x3e3bcc06	0.18339548
146	0x3ec7136f	0.38882014
147	0x3e05c883	0.1306477
148	0xbecaa754	-0.39580786
149	0x3db03b38	0.08605045
150	0xbef7fc02	-0.48434454
151	0x3cd4db00	0.025983334
152	0xbd0c3b8a	-0.03423647
153	0xbeaf323e	-0.3421802
154	0x3e2fecc4	0.17180163
155	0x3f040a2a	0.5157801
156	0x3e851ce1	0.25998595
157	0x3ed1c100	0.4096756
158	0x3ecc8f6c	0.39953172
159	0xbecfcc4b	-0.4058555
160	0x3e5110ee	0.20416614
161	0x3e6cf1ec	0.23139161
162	0xbe94afdc	-0.2904042
163	0xbd14f373	-0.036364984
164	0x3eb099b1	0.34492257
165	0xbef73bb1	-0.48287728
166	0xbd005788	-0.031333476
167	0x3e78022e	0.24219581
168	0x3e082732	0.13296202
169	0xbd581f6a	-0.052764334
170	0xbdad4963	-0.08461263
171	0x3d4a7107	0.049424198
172	0x3eefbb38	0.46822524
173	0xbe0e5cb8	-0.13902557
174	0xbea9ddc3	-0.33177003
175	0xbe664e58	-0.22490823
176	0x3d929a78	0.07158369
177	0x3a30334f	0.0006721513
178	0x3e19e5c7	0.1502906
179	0xbedf9d2f	-0.4367461
180	0xbc3eb2c0	-0.011639297
181	0xbe07d104	-0.13263327
182	0xbeefcf34	-0.4683777
183	0x3ea2db54	0.3180796
184	0xbd8d0459	-0.06885595
185	0x3f0ea2aa	0.55716956
186	0xbe712b53	-0.23551683
187	0x3e18963e	0.14901063
188	0xbeaae478	-0.33377433
189	0xbedd4e06	-0.4322359
190	0xbc215b40	-0.009848416
191	0xbe5201ec	-0.20508546
192	0x3da4467c	0.08021256
193	0xbe92a0e9	-0.2863839
194	0x3d85e045	0.06536917
195	0x3e9d6166	0.30738372
196	0xbed514ba	-0.41617376
197	0x3e2efc0c	0.17088336
198	0xbea168d0	-0.31525278
199	0xbed4fba8	-0.41598248
200	0xbedd3ab0	-0.43208838
201	0x3ecc3980	0.3988762
202	0xbea492e8	-0.3214333
203	0xbe0e9094	-0.1392234
204	0x3e9bc11b	0.30420765
205	0xbdb37d21	-0.08764101
206	0xbd360490	-0.044437945
207	0xbe61d505	-0.22053917
208	0x3e3bc06d	0.18335123
209	0x3c8ec11e	0.01742607
210	0x3ee43577	0.4457204
211	0x3ee1b945	0.44086662
212	0xbec64d7a	-0.38730985
213	0xbe937db6	-0.28806847
214	0x3e0f0d6c	0.13969964
215	0x3d98b200	0.07455826
216	0x3eed44db	0.46341595
217	0x3efa8280	0.4892769
218	0xbed8dc17	-0.42355415
219	0xbeeaf0b8	-0.4588678
220	0x3ead4c40	0.33847237
221	0x3e105d8c	0.14098185
222	0xbc4e3a98	-0.012587212
223	0x3d641d32	0.055691905
224	0xbedb5f0c	-0.42845953
225	0x3ee26fb6	0.44225854
226	0xbec2394c	-0.3793434
227	0xbe66001c	-0.22460979
228	0xbc40672d	-0.011743349
229	0x3e8a915e	0.2706403
230	0xbe1a17f1	-0.15048195
231	0x3d3ce8e4	0.04612054
232	0x3eab0516	0.33402318
233	0xbce95cb5	-0.028486589
234	0xbddd1af2	-0.10796155
235	0x3e8226e9	0.2542031
236	0x3ed3914c	0.4132179
237	0x3dbc0cd0	0.09182131
238	0xbdf07f7a	-0.11743064
239	0xbeb26599	-0.34843138
240	0x3ece3d72	0.40281254
241	0x3ebb27aa	0.365537
242	0xbcc9dfaa	-0.024642784
243	0xbe71165c	-0.23543686
244	0xbe155257	-0.14582191
245	0x3e702bfd	0.2345428
246	0x3e1663df	0.14686535
247	0x3ed87d5e	0.42283148
248	0xbda21058	-0.079132736
249	0xbefb1bfa	-0.49044782
250	0xbc79ac40	-0.0152388215
251	0x3ec9e07e	0.39429086
252	0xbecf0750	-0.40435266
253	0x3e951c90	0.29123354
254	0x3dc60c78	0.09670347
255	0xbeb0c05e	-0.34521765

model.0.bias f4 [128]
0	0xbe1a3f74	-0.15063268
1	0xbdabbfb5	-0.083861746
2	0x3ea3b2ea	0.31972438
3	0xbe50bc3e	-0.20384309
4	0xbe841881	-0.25799945
5	0xbd9a4c1c	-0.07534048
6	0xbd0516b0	-0.03249234
7	0x3c75cc0a	0.01500226
8	0x3e1261e1	0.1429515
9	0xbc8d0b8d	-0.017217422
10	0xbdee8278	-0.11645979
11	0x3e8473af	0.2586951
12	0x3ed512e4	0.41615975
13	0xbe9a58c3	-0.30145845
14	0x3dce16f8	0.10062975
15	0xbea9a564	-0.33133996
16	0x3e8d7c28	0.27633786
17	0xbe8f5dc8	-0.28001237
18	0x3e9947f3	0.29937705
19	0x3ce43dd8	0.02786152
20	0x3e4cd972	0.20004824
21	0x3ea907dc	0.3301381
22	0x3e3fb847	0.1872264
23	0xbec5376e	-0.38518852
24	0x3eeae480	0.45877457
25	0xbce62a60	-0.028096378
26	0xbeb70f5a	-0.357539
27	0xbed63f26	-0.41845053
28	0x3ee1fb40	0.44137
29	0xbd1ce720	-0.038306355
30	0xbd824ab9	-0.063619085
31	0x3e7aab6d	0.24479456
32	0xbec2db84	-0.38058102
33	0xbd3ae110	-0.045624793
34	0xbe88260c	-0.26591527
35	0xbe89de4c	-0.26927412
36	0x3dfc5bf0	0.12322223
37	0x3eb47dda	0.35252267
38	0xbd3f3f95	-0.046691496
39	0x3eab8815	0.3350226
40	0xbeb1309f	-0.34607407
41	0xbd8fd4b5	-0.070229925
42	0x3e818838	0.2529924
43	0xbde48c59	-0.11159582
44	0x3f035f46	0.5131725
45	0xbef49c9c	-0.47775733
46	0xbe4df93f	-0.20114611
47	0x3e870aae	0.26375335
48	0x3f029a25	0.51016456
49	0x3e222ba8	0.15836966
50	0x3eaeaaf4	0.34114802
51	0xbe7e20d0	-0.24817204
52	0x3ec3b97d	0.38227454
53	0xbe5a5860	-0.21322775
54	0x3ef0425e	0.46925634
55	0x3eee7470	0.4657321
56	0xbea63b8e	-0.32467312
57	0x3ef5e6a8	0.4802754
58	0x3e818aee	0.25301307
59	0xbe9062a7	-0.28200266
60	0x3d59f1bb	0.053209048
61	0xbed59b83	-0.4172021
62	0xbd8b3918	-0.06797999
63	0xbee681de	-0.45020956
64	0xbeaba24a	-0.33522254
65	0xbeaceef0	-0.33776045
66	0x3e87324a	0.26405555
67	0x3eeca663	0.46220693
68	0xbefa212a	-0.48853427
69	0xbdcf9753	-0.10136285
70	0x3e00e5e0	0.1258769
71	0x3f05b5fc	0.5223081
72	0xbe589597	-0.21150814
73	0xbe166458	-0.14686716
74	0x3f153dfb	0.582977
75	0xbec7fefb	-0.39061722
76	0xbec801df	-0.39063928
77	0x3e8a2d15	0.2698752
78	0x3ee87e0d	0.4540867
79	0xbd9a5450	-0.075356126
80	0x3eb8217b	0.35963044
81	0x3d3794d0	0.044819653
82	0x3eb98160	0.36231518
83	0x3ec9f9dc	0.3944844
84	0x3d23d00c	0.03999333
85	0xbe075cbe	-0.13218972
86	0x3e46caa2	0.19413236
87	0xbe172ad8	-0.14762437
88	0x3d91f39e	0.071265444
89	0xbdd58218	-0.10425204
90	0xbe94af3b	-0.2903994
91	0xbe8ec3b1	-0.27883676
92	0x3eb89614	0.36052
93	0x3e8fbad2	0.2807222
94	0x3ebbdf91	0.36694005
95	0x3ea79ac0	0.32735252
96	0xbc16193c	-0.00916129
97	0x3eaeebbc	0.34164226
98	0xbe1b0004	-0.15136725
99	0xbefbc8f8	-0.49176764
100	0xbe4be9b9	-0.19913377
101	0x3f0fa0a7	0.5610451
102	0xbe1ade58	-0.1512388
103	0xbed61b84	-0.41817868
104	0x3e86a6c6	0.26299113
105	0x3e9cfb14	0.30660307
106	0xbec074e0	-0.3758917
107	0x3c0a7940	0.00845176
108	0xbdc18050	-0.09448302
109	0xbd3c3230	-0.0459463
110	0xbeff66f4	-0.49883235
111	0xbdd4733a	-0.1037354
112	0xbdc4e514	-0.09614006
113	0xbec2ef78	-0.38073325
114	0x3ec8cf09	0.39220455
115	0x3ec2b76d	0.38030568
116	0xbec82498	-0.3909042
117	0xbdcffec8	-0.101560175
118	0xbe842021	-0.25805762
119	0x3d035970	0.032067716
120	0x3ea53ba8	0.32272077
121	0x3e515780	0.20443535
122	0x3e396300	0.18104172
123	0x3ed12990	0.40852022
124	0xbe6d5254	-0.23175937
125	0xbdb7514a	-0.089510515
126	0x3e8b7c7f	0.2724342
127	0x3e78e7da	0.24307194

model.2.0.weight f4 [64, 128]
0	0x3d04aec2	0.032393225
1	0xbc3d2e18	-0.011546634
2	0x3d9da7b1	0.07698
3	0x3d8c53dd	0.06851933
4	0xbd597369	-0.05308858
5	0xbd256f6a	-0.040389456
6	0xbd3dbd0a	-0.04632286
7	0xbcabfef2	-0.02099559
8	0xbd1a712b	-0.03770558
9	0x3cb1101f	0.021614132
10	0xbaa73780	-0.0012757629
11	0xbdb0d2cb	-0.086339556
12	0xbcb62c5c	-0.02223795
13	0xbcd634a4	-0.026148148
14	0x3bd69930	0.006549023
15	0x3cc44c24	0.023962088
16	0x3b34da60	0.0027595982
17	0xbd163644	-0.036672845
18	0x3d9c661e	0.07636665
19	0xbcb75fd3	-0.02238456
20	0x3d34f64c	0.0441802
21	0x3cdb2657	0.02675168
22	0xbda79565	-0.081827916
23	0xbdb5d992	-0.08879389
24	0xbd19e28b	-0.037569564
25	0xbd8413a6	-0.0644906
26	0xbccd436c	-0.025056563
27	0xbd9e2dd7	-0.07723587
28	0xbc9e4d88	-0.01932408
29	0x3d62c462	0.055363066
30	0x3da4bc25	0.08043698
31	0xbd8801cb	-0.06640967
32	0xbda114fa	-0.07865329
33	0xbd3a003a	-0.045410372
34	0xbd2433f1	-0.040088598
35	0xbdacdea8	-0.08440906
36	0x3d654385	0.055972595
37	0xbd8515ec	-0.06498322
38	0x3d67dd31	0.05660743
39	0x3b92bc20	0.0044779927
40	0x3cf8e6f4	0.030383565
41	0xbd50f2b1	-0.0510127
42	0xbdbf5145	-0.09341673
43	0xbcf3102e	-0.029670801
44	0x3d114b73	0.035472345
45	0xbcbaaa30	-0.02278623
46	0x3d024aea	0.031809725
47	0x3d89966f	0.06718146
48	0xbd967b4f	-0.07347738
49	0xbd03f94c	-0.03222017
50	0x3daaea83	0.08345511
51	0xbd3d8098	-0.046265215
52	0xbda9fa93	-0.08299746
53	0xbd051b93	-0.032497
54	0x3b46d412	0.0030338806
55	0x3d18d16a	0.037309088
56	0x3ca887dc	0.020572595
57	0x3d901cd5	0.07036749
58	0x3d8f7bf8	0.07006067
59	0xbd3aa6fc	-0.045569405
60	0xbc41770b	-0.011808167
61	0x3d8191a7	0.06326609
62	0x3ce38480	0.027773142
63	0x3bcf33f0	0.00632333
64	0x3d0dcb38	0.034617633
65	0x3c7fb37f	0.01560676
66	0x3dab802d	0.08374057
67	0xbade6617	-0.0016967681
68	0xbd1577a3	-0.036491048
69	0x3b0b6a5f	0.002127312
70	0x3da21a15	0.07915131
71	0x3ccd58f4	0.02506683
72	0x3d8d24b7	0.068917684
73	0xbda08203	-0.07837298
74	0x3d1feb06	0.039042495
75	0xbd442855	-0.047890026
76	0x3d168cfa	0.03675554
77	0x3d845c20	0.06462884
78	0x3d8452ad	0.06461082
79	0x3d9e36a3	0.07725265
80	0x3d9a3ff5	0.0753173
81	0x3b155020	0.0022783354
82	0xbd899a07	-0.067188315
83	0x3d5ff0c6	0.05467298
84	0x3d219e82	0.039457805
85	0x3c19ae88	0.00937999
86	0x3d2e4871	0.042549554
87	0xbd93db6c	-0.07219586
88	0xbd64add6	-0.055829845
89	0x3cd68ea2	0.02619106
90	0xbd87051e	-0.06592773
91	0xbd4d0d78	-0.050061673
92	0x3c853f50	0.016265541
93	0xbcc3f2cc	-0.023919486
94	0xbd7c6522	-0.061619885
95	0xbd8d719a	-0.069064334
96	0xbd9c668a	-0.07636745
97	0x3d529d13	0.05141933
98	0xbd8f95d1	-0.07010997
99	0xbd604575	-0.05475374
100	0xbc88ccf0	-0.016699284
101	0xbd8634e5	-0.065530576
102	0xbd898dbb	-0.06716486
103	0x3d71d5be	0.05904173
104	0x3d933f13	0.07189765
105	0xbd085e9d	-0.033293355
106	0x3c3d43a3	0.01155177
107	0x3daaca0f	0.08339321
108	0x3d262c72	0.04056973
109	0xbd18ffb4	-0.037353233
110	0xbd089d9f	-0.033353444
111	0xbd8a3774	-0.06748858
112	0x3be383ed	0.006943217
113	0x3a8bcf40	0.0010666624
114	0xbd8879df	-0.0666387
115	0xbc474b29	-0.012163916
116	0x3cbc0178	0.02294992
117	0xbd22ade5	-0.03971662
118	0x3d9602cd	0.07324753
119	0x3d58c9ee	0.05292695
120	0xbd15132f	-0.036395248
121	0xbd9f5aad	-0.07780967
122	0x3c0cab80	0.008585811
123	0xbd865fc2	-0.06561233
124	0xbbec7450	-0.007216014
125	0xbc96cd54	-0.018408455
126	0xbd72c3a9	-0.059268627
127	0x3d98c816	0.07460038
128	0xbd0f62ee	-0.035006456
129	0x3d876904	0.06611827
130	0xbd17c7e2	-0.037055857
131	0xbd8f51be	-0.06998013
132	0x3da3e319	0.080023
133	0x3bec9a0d	0.0072205127
134	0x3bf1a6f5	0.007374639
135	0xbdab5553	-0.08365884
136	0xbdbe8fc1	-0.09304763
137	0x3d243607	0.040090587
138	0x3e67a9e8	0.22623408
139	0x3ddfd0b4	0.10928479
140	0x3d1dbe8a	0.03851179
141	0xbced5366	-0.028970432
142	0xbc65f090	-0.014034405
143	0xbd580834	-0.052742198
144	0xbcd5a02a	-0.026077349
145	0x3cb79df8	0.022414193
146	0xbdb2b0bf	-0.08725118
147	0x3d396abb	0.0452678
148	0xbc99e2b3	-0.018784856
149	0xbe2dc5ff	-0.16970061
150	0xbc6fa637	-0.014627031
151	0xbd2824f0	-0.04105085
152	0xbcc775c0	-0.02434814
153	0x3c4db158	0.012554489
154	0x3d8aafa7	0.06771784
155	0xbd838fd5	-0.06423918
156	0x3d263b84	0.040584102
157	0xbc4291a8	-0.0118755475
158	0xbdd1a8bf	-0.10237264
159	0xbe31f9fb	-0.17380516
160	0x3db72e79	0.08944411
161	0xbd98cef4	-0.07461348
162	0x3da8a5f7	0.0823478
163	0x3d9fe2cd	0.07806931
164	0xbdb30383	-0.08740904
165	0xbd21b05f	-0.03947484
166	0xbd30d68f	-0.04317337
167	0x3df6cde8	0.12050992
168	0x3e0f7dc4	0.1401282
169	0xbde2e41d	-0.110786654
170	0x3d1aa25f	0.037752505
171	0x3d9f9775	0.0779256
172	0x3d2bac7a	0.041912533
173	0xbcd49580	-0.025950193
174	0x3d54c0ef	0.05194181
175	0xbc1a1eb0	-0.0094067305
176	0xbd8f81de	-0.07007192
177	0xbb7dd2e0	-0.0038730428
178	0x3ce72d84	0.028219946
179	0xbc4efa12	-0.012632864
180	0xbd192571	-0.037389223
181	0xbda1fce9	-0.07909567
182	0x3cecb2b7	0.028893812
183	0xbca9612e	-0.020676222
184	0x3c173f38	0.009231381
185	0x3d687a80	0.05675745
186	0x3c4ed1c2	0.012623252
187	0xbcc16584	-0.023607977
188	0xbcbe22d1	-0.023209961
189	0xbe34b1cf	-0.17645954
190	0xbd9fdb97	-0.07805555
191	0xbcf37650	-0.029719502
192	0xbd2ab9ff	-0.041681286
193	0x3dea2f53	0.11434808
194	0xbd60c33f	-0.0548737
195	0x3da76001	0.08172608
196	0xbd1277fc	-0.035758957
197	0x3d780727	0.060553696
198	0x3d9f7edf	0.077878706
199	0x3e210a3c	0.1572656
200	0xbe2890e1	-0.16461517
201	0x3cef0f0c	0.02918198
202	0x3db153be	0.08658551
203	0xbd9bd90f	-0.0760976
204	0xbd51088a	-0.051033534
205	0xbca2df7d	-0.019881958
206	0x3d643a76	0.055719815
207	0xbda6e64c	-0.081493944
208	0xbc153728	-0.009107389
209	0xbda9de89	-0.08294398
210	0x3d560cca	0.05225829
211	0xbc807dd0	-0.015684992
212	0xbc5613fe	-0.01306629
213	0x3d8a6132	0.0675682
214	0x3e1ea5d2	0.15492943
215	0xbe0e7591	-0.13912036
216	0x3d54863e	0.051885836
217	0x3de5ee85	0.112271346
218	0xbcca2ae7	-0.02467866
219	0x3df2c1a7	0.118533425
220	0x3d8d2749	0.06892259
221	0x3cf3d4f0	0.029764622
222	0xbdf2a750	-0.118483186
223	0xbd01a5c5	-0.03165223
224	0xbc8dd69d	-0.01731425
225	0xbcf5c22e	-0.029999819
226	0x3db4b115	0.08822838
227	0xbcb59a1c	-0.022168212
228	0xba759dbe	-0.0009369514
229	0x3da694b0	0.08133829
230	0x3d65332a	0.055956997
231	0xbd06c8b3	-0.032906245
232	0xbd9d5098	-0.07681388
233	0x3e00a7b5	0.12563975
234	0x3d7c6296	0.061617456
235	0xbda51c3c	-0.08062026
236	0xbd914c5e	-0.07094644
237	0xbd926992	-0.07149042
238	0xbd8db38b	-0.06919011
239	0x3cd93574	0.026514746
240	0x3dc3a072	0.09552087
241	0x3c913f74	0.017730452
242	0x3e03803c	0.12841886
243	0x3d3ffea0	0.04687369
244	0x3dce08e6	0.10060291
245	0xbcf7414e	-0.030182507
246	0x3d75201b	0.05984507
247	0xbd705e66	-0.058683775
248	0x3d472c46	0.048626207
249	0x3d8f7291	0.07004274
250	0x3d3bf97e	0.04589223
251	0x3d1f4bde	0.038890712
252	0x3d39309e	0.04521238
253	0x3d8c1592	0.06840052
254	0x3cee27e6	0.02907176
255	0x3ccd66c4	0.025073417

model.2.0.bias f4 [64]
0	0xbd8cfa1a	-0.068836406
1	0x3e179bfd	0.14805599
2	0x3d2c03c6	0.041995786
3	0xbd8dda4e	-0.06926404
4	0x3db8c068	0.090210736
5	0xbc0e866e	-0.008699043
6	0xbdeb0ce1	-0.11477066
7	0xbcbca3c0	-0.0230273
8	0x3d855cf5	0.06511871
9	0x3d8e5b86	0.069510505
10	0x3d18eb4e	0.03733378
11	0xbb71aae0	-0.003687553
12	0xbc680588	-0.014161475
13	0x3d1877c6	0.0372236
14	0xbbe326e0	-0.0069321245
15	0x3d65544e	0.055988602
16	0x3dbfebd1	0.0937115
17	0x3a850980	0.0010149926
18	0xbd58a603	-0.052892696
19	0x3c7fc910	0.015611902
20	0x3c58ea79	0.013239496
21	0xbd5995bf	-0.053121325
22	0xbc97f0c4	-0.018547423
23	0xbd19752a	-0.037465252
24	0x3cef940c	0.029245399
25	0x3caab3a9	0.020837622
26	0xbd335fd1	-0.04379255
27	0xbdcbca06	-0.09950642
28	0x3d3536ae	0.0442416
29	0xbcfcb984	-0.03085018
30	0x3cb6cb3d	0.022313708
31	0xbd9ab074	-0.07553187
32	0x3d00471c	0.031317815
33	0xbd011831	-0.03151721
34	0x3da934c7	0.082620196
35	0xbd83a710	-0.06428349
36	0xbd8db4d0	-0.06919253
37	0xbbdc195d	-0.0067168907
38	0xbddc50a3	-0.10757568
39	0xbd3c3c80	-0.045956135
40	0x3d31f954	0.04345067
41	0x3cc8fc61	0.024534406
42	0xbccc2124	-0.024918146
43	0xbd8a83a7	-0.06763392
44	0x3d3b2727	0.045691635
45	0xbd9a53ed	-0.07535539
46	0xbcf681e4	-0.030091234
47	0x3ca98b90	0.020696431
48	0xbced16b5	-0.028941492
49	0xbdb1add8	-0.08675736
50	0x3ce14708	0.02749969
51	0xbcd4adfc	-0.025961868
52	0xbced084e	-0.028934624
53	0x3c51a569	0.0127957845
54	0x3a10dfd3	0.00055265165
55	0x3c81b9b2	0.015835617
56	0xbd10d665	-0.035360713
57	0xbbb5515f	-0.005533382
58	0x3d54097d	0.05176686
59	0xbd2f904e	-0.04286223
60	0xbd958b20	-0.073019266
61	0xbc7c7500	-0.015408754
62	0x3cb2612c	0.02177485
63	0xbd1f272e	-0.038855724

model.3.weight f4 [3, 64]
0	0x3ddf51e1	0.10904289
1	0x3e246b8c	0.16056651
2	0xbe176c54	-0.14787418
3	0xbd485ac0	-0.04891467
4	0x3cef7f56	0.029235523
5	0xbdfcb678	-0.12339491
6	0xbdcbcb44	-0.09950879
7	0xbd69a524	-0.057042256
8	0x3d3c25d0	0.0459345
9	0xbcf827e4	-0.030292459
10	0x3dd81bb4	0.10552159
11	0x3d53c2f4	0.051699594
12	0xbce87330	-0.028375238
13	0xbc66c780	-0.01408565
14	0xbcb36420	-0.02189833
15	0x3d8a3f6e	0.067503795
16	0xbdbc9402	-0.09207918
17	0x3cfa1b50	0.030530602
18	0xbc98fb95	-0.018674651
19	0xbd4f2f0c	-0.050581977
20	0x3d3b6bef	0.04575723
21	0x3ddcdb68	0.10784036
22	0x3de15f28	0.11004478
23	0x3e2da060	0.1695571
24	0x3d9d822e	0.076908454
25	0xbdb9909e	-0.09060787
26	0xbdec36ae	-0.11533867
27	0xbb8b79f9	-0.0042564836
28	0x3e038f22	0.1284757
29	0xbdd3603e	-0.10321091
30	0x3d174f8e	0.036941104
31	0xbe39608d	-0.18103237
32	0x3dbaeef2	0.091276065
33	0xbcf65eb8	-0.030074462
34	0xbd1808d4	-0.037117794
35	0xbdff58fe	-0.12468146
36	0x3c0a0be0	0.008425683
37	0x3daf0d38	0.08547443
38	0xbdf04f73	-0.11733904
39	0xbdc8692f	-0.09785687
40	0x3d9fd6c1	0.07804633
41	0xbd88e917	-0.06685083
42	0xbdd65382	-0.104651466
43	0xbd3c435b	-0.045962673
44	0x3e2fa035	0.17150958
45	0xbe10f7d4	-0.14157039
46	0xbde322ef	-0.110906474
47	0x3e102215	0.14075501
48	0xbd1e46c1	-0.038641695
49	0xbddd30a4	-0.10800293
50	0x3d8e8efa	0.06960864
51	0x3dc3f160	0.09567523
52	0xbdbec70e	-0.093153104
53	0xbae053cc	-0.0017114817
54	0x3d9f06c4	0.07764962
55	0x3ccf5aab	0.025311789
56	0x3e0022b5	0.1251324
57	0x3d6f3277	0.058397736
58	0x3d53bd0c	0.05169396
59	0x3d4d9a30	0.050195873
60	0xbbd0d191	-0.0063726385
61	0x3df06808	0.117385924
62	0x3df10604	0.117687255
63	0xbb97a016	-0.004627238
64	0xbd8af83a	-0.06785627
65	0x3d251e2b	0.040311974
66	0xbcd720ab	-0.026260694
67	0x3dfff2a0	0.12497449
68	0x3d6f41cd	0.058412362
69	0x3d7a251f	0.061070558
70	0xbd9ceaa8	-0.07661945
71	0x3cdc9268	0.02692528
72	0xbbc9b940	-0.0061561167
73	0xbd3ae2b3	-0.045626353
74	0xbd7d8994	-0.061898783
75	0x3d39a650	0.045324624
76	0x3df1e262	0.11810757
77	0xbc8bed20	-0.017080843
78	0xbd97fbac	-0.074210495
79	0x3d8c609e	0.06854366
80	0x3de05c86	0.109551474
81	0xbd88182a	-0.06645234
82	0xbcfb2366	-0.030656528
83	0xbdd8eb70	-0.10591781
84	0xbe11ee0e	-0.14250967
85	0xbd752f13	-0.059859347
86	0xbde02088	-0.10943705
87	0xbc5a2f5f	-0.013316958
88	0xbd945b82	-0.07244016
89	0x3c92ba50	0.017911106
90	0x3dc0423c	0.09387633
91	0x3d356548	0.044286042
92	0xbdfb07f7	-0.122573785
93	0xbd86e22a	-0.06586106
94	0xbe22d08d	-0.15899868
95	0xbcbea981	-0.023274185
96	0x3d9f972c	0.077925056
97	0xbce935e8	-0.028468087
98	0x3dd963aa	0.106147125
99	0x3dd570c8	0.10421902
100	0x3dabf350	0.083960176
101	0xbe58369d	-0.21114583
102	0xbd6d1b34	-0.05788727
103	0x3ddd6781	0.108107574
104	0xbd88fd37	-0.06688922
105	0x3cdf1ad0	0.027234465
106	0xbcb6b9f7	-0.022305472
107	0x3b9487e5	0.0045328015
108	0xbc8841db	-0.016632965
109	0x3d23e478	0.040012807
110	0x3d8e3798	0.069441974
111	0x3de11f6e	0.10992323
112	0xbd2a174c	-0.041526124
113	0xbdb87106	-0.090059325
114	0x3d7ef1dc	0.062242374
115	0x3ba94d40	0.0051666796
116	0x3db89a40	0.09013796
117	0x3e04cce1	0.1296878
118	0x3d3cecf9	0.046124432
119	0x3d75527d	0.05989312
120	0xbd2bc637	-0.04193708
121	0x3c4f5e0d	0.012656701
122	0xbdd7103a	-0.10501142
123	0x3c982a00	0.018574715
124	0xbc8467cd	-0.016162777
125	0x3d8a24b9	0.067452855
126	0x3db96eb6	0.090543196
127	0x3d8f7caa	0.070062
128	0x3d5b88aa	0.05359713
129	0xbe75ba2c	-0.239968
130	0x3e24ed3b	0.16106121
131	0xbd61e72c	-0.055152103
132	0xbe438944	-0.19095331
133	0x3df3e420	0.11908746
134	0x3dcae4e5	0.099069394
135	0x3da2cf30	0.07949674
136	0xbd6c4ec8	-0.05769232
137	0xbe78e889	-0.24307455
138	0x3d8f1c3a	0.06987806
139	0x3daa2190	0.08307183
140	0x3d896b20	0.067098856
141	0xbd9064d4	-0.070504814
142	0xbd6c8410	-0.057743132
143	0xbd9a62fa	-0.075384095
144	0x3d737ab5	0.059443194
145	0x3cb57620	0.022151053
146	0x3e10396a	0.14084402
147	0xbd2ded28	-0.042462498
148	0xbcad6e54	-0.021170773
149	0xbe2577e4	-0.16159016
150	0x3db9c1e0	0.09070182
151	0xbe4ca9e7	-0.19986688
152	0x3dd628b4	0.10456982
153	0xbe0605ff	-0.13088225
154	0x3d78715c	0.060654983
155	0x3e4b8b94	0.19877464
156	0xbdc618a2	-0.09672667
157	0x3de3c38b	0.11121281
158	0xbd781cef	-0.06057447
159	0x3d8cad1e	0.06868957
160	0x3d19db30	0.03756255
161	0xbde2abe8	-0.11067945
162	0x3dc4e99c	0.0961487
163	0xbd8f5352	-0.06998314
164	0x3c8cc7f0	0.017185181
165	0xbcf6786d	-0.03008672
166	0x3d4b4796	0.049628817
167	0x3cde317e	0.02712321
168	0x3d0f84c8	0.03503874
169	0x3e12cf1d	0.1433682
170	0xbdc286f3	-0.09498396
171	0x3d609f22	0.05483926
172	0xbe74ee63	-0.23919062
173	0x3d496e19	0.049177263
174	0x3e052355	0.1300176
175	0xbdfd16b8	-0.12357849
176	0x3b93f0be	0.0045147827
177	0x3e018a01	0.126503
178	0xbbe06980	-0.006848514
179	0xbd2333f8	-0.039844483
180	0xbd097ba8	-0.033565193
181	0x3c3d1df0	0.011542782
182	0xbe4b4b0d	-0.19852848
183	0xbd855fa5	-0.06512383
184	0x3c99f3f2	0.01879308
185	0xbe80dddc	-0.25169265
186	0x3dca1501	0.098672874
187	0xbd0270d8	-0.031845897
188	0x3e45d06a	0.19317785
189	0xba8b7fd0	-0.001064295
190	0x3d09d1a0	0.03364718
191	0x3d61ef9c	0.05516015

model.3.bias f4 [3]
0	0x3d88ff67	0.06689339
1	0x3e1a1002	0.15045169
2	0xbd388065	-0.04504432
